…
To enable them in other operations, rebuild TensorFlow with the appropriate compiler flags.
Model: "model"
__________________________________________________________________________________________________
 Layer (type)                   Output Shape         Param #     Connected to                     
==================================================================================================
 input_1 (InputLayer)           [(None, 300)]        0           []                               
                                                                                                  
 embedding (Embedding)          (None, 300, 300)     3374400     ['input_1[0][0]']                
                                                                                                  
 reshape (Reshape)              (None, 300, 300, 1)  0           ['embedding[0][0]']              
                                                                                                  
 conv2d (Conv2D)                (None, 298, 1, 298)  268498      ['reshape[0][0]']                
                                                                                                  
 conv2d_1 (Conv2D)              (None, 297, 1, 298)  357898      ['reshape[0][0]']                
                                                                                                  
 conv2d_2 (Conv2D)              (None, 296, 1, 298)  447298      ['reshape[0][0]']                
                                                                                                  
 conv2d_3 (Conv2D)              (None, 296, 1, 298)  447298      ['reshape[0][0]']                
                                                                                                  
 conv2d_4 (Conv2D)              (None, 296, 1, 298)  447298      ['reshape[0][0]']                
                                                                                                  
 max_pooling2d (MaxPooling2D)   (None, 1, 1, 298)    0           ['conv2d[0][0]']                 
                                                                                                  
 max_pooling2d_1 (MaxPooling2D)  (None, 1, 1, 298)   0           ['conv2d_1[0][0]']               
                                                                                                  
 max_pooling2d_2 (MaxPooling2D)  (None, 1, 1, 298)   0           ['conv2d_2[0][0]']               
                                                                                                  
 max_pooling2d_3 (MaxPooling2D)  (None, 1, 1, 298)   0           ['conv2d_3[0][0]']               
                                                                                                  
 max_pooling2d_4 (MaxPooling2D)  (None, 1, 1, 298)   0           ['conv2d_4[0][0]']               
                                                                                                  
 concatenate (Concatenate)      (None, 5, 1, 298)    0           ['max_pooling2d[0][0]',          
                                                                  'max_pooling2d_1[0][0]',        
                                                                  'max_pooling2d_2[0][0]',        
                                                                  'max_pooling2d_3[0][0]',        
                                                                  'max_pooling2d_4[0][0]']        
                                                                                                  
 flatten (Flatten)              (None, 1490)         0           ['concatenate[0][0]']            
                                                                                                  
 dropout (Dropout)              (None, 1490)         0           ['flatten[0][0]']                
                                                                                                  
 dense (Dense)                  (None, 3)            4473        ['dropout[0][0]']                
                                                                                                  
==================================================================================================
Total params: 5,347,163
Trainable params: 5,347,163
Non-trainable params: 0
__________________________________________________________________________________________________
…
